Ex2/cifar_net.pth (torch, 250887 bytes, 10 tensors)

conv1.weight f4 [6, 3, 5, 5]
-0.11250958 -0.0052914796 -0.27868813 -0.27240974 0.08303396 -0.14029914 0.06937314 -0.037455976
-0.041875646 -0.11199872 -0.07203421 -0.13955025 0.03138674 0.09297438 -0.27185127 0.058045805
-0.13476872 -0.06663561 -0.056248743 -0.010476082 0.015090303 -0.0027995745 0.027496463 -0.3015827
0.09550412 0.099902056 0.22283943 0.018227609 0.09052912 0.344035 0.1847696 0.23209572
0.2778976 0.30772996 0.32692835 0.04661583 0.052290663 0.31472677 0.29275167 0.02229972
0.29434332 0.019552585 0.019608008 0.07002859 0.10726817 -0.017114727 0.20555791 0.17261426
0.07879641 0.20582773 -0.09069836 0.05561786 -0.25250223 -0.24455604 0.11248632 -0.16901036
-0.024075268 -0.06329504 -0.09593331 0.045255058 -0.06570049 -0.00043475878 -0.06357644 0.02026654
-0.2331606 0.06173066 -0.110060975 -0.12630367 -0.100803524 0.037552346 -0.12504975 0.031077307
0.069014534 -0.20742927 0.060841043 0.108739555 0.19726624 0.21264371 0.34919754 0.4291671
0.04855706 -0.04527282 0.029611766 0.006663528 0.27507836 -0.0035599032 -0.0340981 -0.13258849
-0.08687843 0.090799324 -0.117020145 -0.18716913 -0.17109385 -0.29569295 -0.1246914 -0.17695895
-0.36679143 -0.32942206 -0.09457435 0.0061449 -0.36593944 -0.39256227 -0.15663819 -0.11326423
-0.14527248 -0.15212719 -0.28256023 -0.3759051 -0.16445379 0.013207198 0.054170918 -0.14358677
-0.2846097 -0.19112282 0.009886198 0.14869872 -0.22586423 -0.21938637 -0.13990794 -0.046668243
0.33738223 0.08652835 0.019230006 0.053213794 0.1865167 -0.07118923 -0.27565545 -0.0664711
-0.012696733 0.20340836 0.081355184 -0.07908627 -0.2000472 -0.021485947 0.20433818 0.3147906
-0.16919462 -0.14026596 -0.10428994 0.080492735 0.19610868 -0.07279022 -0.16778597 -0.0028421124
0.17783263 0.30532685 0.047760118 0.106756404 0.17334267 0.33571187 -0.09716169 -0.2030578
-0.22748241 -0.32498237 -0.117542624 -0.11696032 -0.10930906 -0.16921182 0.010359058 -0.14437188
0.014755627 0.052235413 0.25008807 0.16223729 0.109698266 0.2299124 0.29595196 0.34793314
0.26056194 0.12198133 0.21745862 0.19078869 0.22853985 0.19647078 0.18206447 -0.014220264
-0.034253854 -0.10627521 -0.12093929 -0.112589695 -0.0212765 -0.12938787 -0.05374089 -0.018034095
-0.024720121 -0.08352171 -0.023644213 0.090635344 0.015567475 0.02614468 -0.14707905 -0.06305144
0.057856385 0.14011298 -0.056249686 0.011418073 0.046820827 0.01411936 -0.009860152 -0.18336754
0.031547893 0.0828219 -0.086251035 0.12313286 0.1893495 -0.04364653 -0.011741524 0.15035655
0.17217816 0.12170135 -0.07935835 0.17206812 0.28519097 0.30366683 -0.09376922 -0.0888061
0.07100971 0.15428528 0.24583188 0.042570442 -0.13719115 -0.10902476 0.0011179519 0.0045892247
-0.116695605 0.2562777 0.47889507 -0.16445193 -0.21135022 0.124923594 0.2888183 0.14855051
-0.6844888 -0.33233938 0.6293378 0.14627571 0.021625299 -0.57610923 -0.17261687 0.44684353
-0.06519128 -0.21927401 -0.15769348 -0.016887298 0.24704665 -0.07593021 -0.014218044 -0.11509643
-0.10631391 0.0684163 0.18231958 0.34788316 -0.43784726 -0.31834677 0.064109415 0.22996597
00000000: 6c6b e6bd 2664 adbb 36b0 8ebe 4a79 8bbe
00000010: b50d aa3d 94aa 0fbe 8113 8e3d 706b 19bd
00000020: cc85 2bbd 965f e5bd ac86 93bd 43e6 0ebe
00000030: 628f 003d 5a69 be3d 1730 8bbe 70c1 6d3d
00000040: d000 0abe 4078 88bd 1565 66bd dfa3 2bbc
00000050: 513d 773c 1179 37bb 4340 e13c 0c69 9abe
00000060: aa97 c33d 7399 cc3d 0530 643e 1152 953c
00000070: 5567 b93d 5b25 b03e 3e34 3d3e 80aa 6d3e
00000080: 9848 8e3e c88e 9d3e 2763 a73e 3ef0 3e3d
00000090: bc2e 563d de23 a13e 8ce3 953e e7ad b63c
000000a0: 2bb4 963e be2c a03c f9a0 a03c 266b 8f3d
000000b0: 6aaf db3d 2f34 8cbc c67d 523e cbc1 303e
000000c0: 0360 a13d 81c4 523e 10c0 b9bd 8ecf 633d
000000d0: f947 81be e66c 7abe 3a5f e63d 0d11 2dbe
000000e0: 7f39 c5bc d4a0 81bd af78 c4bd 5e5d 393d
000000f0: fa8d 86bd 56f0 e3b9 5d34 82bd 0406 a63c
00000100: a7c1 6ebe 4ad9 7c3d a667 e1bd c055 01be
00000110: 1472 cebd 7dd0 193d 0b0d 00be d695 fe3c
00000120: 7e57 8d3d 5768 54be 7534 793d d8b2 de3d
00000130: 2900 4a3e 46bf 593e 05ca b23e cabb db3e
00000140: c5e3 463d fe6f 39bd 6094 f23c b959 da3b
00000150: 12d7 8c3e 444d 69bb 73aa 0bbd 47c5 07be
00000160: 51ed b1bd fff4 b93d 42a8 efbd 44a9 3fbe
00000170: 3a33 2fbe 1165 97be 345e ffbd ba34 35be
00000180: 16cc bbbe 02aa a8be 32b0 c1bd 285b c93b
00000190: 6a5c bbbe ecfd c8be c365 20be 14f7 e7bd
000001a0: 4fc2 14be 3bc7 1bbe bcab 90be a276 c0be
000001b0: 9366 28be 0163 583c 53e2 5d3d 6908 13be
000001c0: 5db8 91be b3b5 43be b8f9 213c 7a44 183e
000001d0: f448 67be d2a6 60be 0744 0fbe 3327 3fbd
000001e0: 5dbd ac3e c735 b13d 3f88 9d3c b5f6 593d
000001f0: 3cfe 3e3e a9cb 91bd b622 8dbe 0022 88bd
00000200: f505 50bc 484a 503e 8c9d a63d fbf7 a1bd
00000210: 2cd9 4cbe 4c03 b0bc 073e 513e 3c2c a13e
00000220: 5b41 2dbe e1a1 0fbe f795 d5bd 60d9 a43d
00000230: b7d0 483e 0a13 95bd 16d0 2bbe bc42 3abb
00000240: c219 363e cd53 9c3e 1da0 433d 1aa3 da3d
00000250: be80 313e 6de2 ab3e b5fc c6bd 62ee 4fbe
00000260: 26f1 68be 1764 a6be 30ba f0bd e488 efbd
00000270: 6edd dfbd dd45 2dbe 0ab9 293c 39d6 13be
00000280: 96c1 713c cdf4 553d 8b0b 803e 8821 263e
00000290: 7ca9 e03d 286e 6b3e 0487 973e 4b24 b23e
000002a0: 6068 853e 59d1 f93d 79ad 5e3e 1c5e 433e
000002b0: 5a06 6a3e a32f 493e 1c6f 3a3e 1cfc 68bc
000002c0: c54d 0cbd d1a6 d9bd 05af f7bd 6d95 e6bd
000002d0: 0e4c aebc 417e 04be 681f 5cbd 3dbc 93bc
000002e0: da81 cabc 6e0d abbd 82b1 c1bc 069f b93d
000002f0: b90e 7f3c 5e2d d63c e49b 16be 1d21 81bd
00000300: d1fa 6c3d c779 0f3e 1266 66bd df12 3b3c
00000310: 32c7 3f3d e354 673c 7a8c 21bc b3c4 3bbe
00000320: 5d38 013d 879e a93d 62a4 b0bd 152d fc3d
00000330: d6e4 413e b4c6 32bd 855f 40bc 11f7 193e
00000340: 794f 303e 8f3e f93d a186 a2bd a032 303e
00000350: 8d04 923e 387a 9b3e 140a c0bd f9df b5bd
00000360: 8a6d 913d f6fc 1d3e 5abb 7b3e 585e 2e3d
00000370: d67b 0cbe 6048 dfbd 3e88 923a 3561 963b
00000380: 1bfe eebd d536 833e bc31 f53e 1666 28be
00000390: 316c 58be f1d7 ff3d fedf 933e a01d 183e
000003a0: a83a 2fbf 6328 aabe 481c 213f 4dc9 153e
000003b0: 8a27 b13c e57b 13bf 7ac2 30be adc8 e43e
000003c0: 0183 85bd 5e89 60be 667a 21be 3b57 8abc
000003d0: ccf9 7c3e 4c81 9bbd ccf2 68bc adb7 ebbd
000003e0: 1bbb d9bd d81d 8c3d fcb1 3a3e be1d b23e
000003f0: 842d e0be 59fe a2be cc4b 833d 337c 6b3e

conv1.bias f4 [6]
0.024680927 -0.40354142 -0.02981621 -0.09888727 -0.42578357 0.4577941
00000000: a82f ca3c fb9c cebe 2041 f4bc 6985 cabd
00000010: 4e00 dabe fd63 ea3e

conv2.weight f4 [16, 6, 5, 5]
-0.02229984 -0.011574594 0.096007854 0.019095438 0.060969554 -0.10891093 0.045982253 -0.017431095
0.0038751245 -0.012990272 -0.1283095 0.04493574 0.086364396 0.03766396 -0.044806432 -0.12957165
-0.08765261 0.07405082 -0.047711223 0.06916182 -0.13272609 -0.025169747 0.049198672 -0.03650198
-0.022782523 0.19061522 0.02224152 -0.16850081 -0.25499424 -0.10980521 0.17460684 0.057864517
-0.08310575 -0.27362728 -0.1519417 0.30149925 0.01443816 -0.11983359 -0.1554837 -0.1768643
0.20080791 0.07292434 0.015985882 -0.21996073 -0.18525979 0.24108785 0.2118748 0.13876472
-0.068297 -0.17130978 -0.2607799 0.063428976 0.23753223 0.2744221 0.017895494 -0.14882882
-0.0069528464 0.16062988 0.1773504 -0.11600043 -0.1952042 -0.006503132 0.13140787 0.21081391
-0.01466008 -0.061961267 -0.12144612 -0.024439221 0.06425785 -0.019294174 -0.13460667 -0.098157406
-0.04843688 0.015574416 -0.117035255 0.047503192 0.030709755 -0.16698535 -0.27567104 -0.22998875
0.034439657 -0.0033663607 -0.07874833 -0.2773177 -0.16288747 0.088139094 -0.0060705375 -0.13185064
-0.23786238 -0.19039543 0.047064632 0.10560884 -0.093645275 -0.10962397 -0.08081995 0.14132062
0.22211628 0.24703361 0.078260876 0.011739753 0.11206326 0.07360908 0.024718601 -0.07377802
-0.031898726 0.08876922 0.038977362 -0.053693883 -0.16923086 -0.17275253 0.015936892 0.055613976
-0.085965365 -0.16034622 -0.17310749 -0.10031877 -0.05874892 -0.11678074 -0.13798329 -0.17600976
-0.116034664 -0.10700668 -0.16133702 -0.118457176 -0.21202184 0.023435866 -0.089508936 -0.13176921
-0.066440165 -0.071251504 0.18123125 -0.05109385 -0.13132581 -0.079382375 -0.14101715 0.18321532
-0.0036573755 -0.029200997 -0.058987733 -0.09703189 0.17649034 0.02502532 0.039385792 -0.0008869793
-0.14773566 0.19085848 0.07469401 0.0064618904 0.06979356 -0.043265585 0.21375692 0.12913194
0.17450646 -0.02324228 -0.12209662 0.12638654 0.13356413 -0.01784512 -0.05003839 -0.030530883
0.056497663 -0.075377 -0.11983938 -0.079164006 -0.016491456 -0.07264281 -0.08149034 -0.08576603
0.024320226 -0.113790944 -0.006194719 -0.08682591 -0.023622803 -0.15992704 -0.09200872 -0.054865375
-0.09081059 -0.22258797 0.115063176 0.10057026 -0.26529476 -0.085787706 0.16214976 0.06303691
-0.18509121 -0.016015915 -0.026545312 0.103737704 -0.033468273 -0.1278163 0.05840619 0.050130364
-0.14497744 -0.010426821 -0.07319214 0.07383797 0.11729982 0.048466038 0.015460258 -0.06514802
0.16996358 0.04795968 -0.0938716 -0.27905613 -0.17871517 0.24376309 0.03845007 -0.23885089
-0.107987285 0.0737048 -0.105342284 -0.17161563 0.052768696 0.25319123 0.07654582 -0.11704194
0.0416298 0.031415492 0.009527281 -0.036992997 0.17504738 0.12560946 -0.082606845 -0.006556333
0.13472776 0.18988276 0.270748 -0.21888646 -0.05481531 0.17409115 0.11953621 -0.26322356
-0.12339701 0.38201746 0.14785868 -0.28219372 -0.038256805 0.39845276 -0.013141527 -0.3667066
0.0128379585 0.2643838 -0.08491441 -0.3034192 0.013921093 0.08178615 -0.15990512 -0.2691339
-0.011726714 0.08007977 -0.019257143 -0.15052733 0.095943436 0.07033657 -0.02296464 -0.19216333
00000000: 27ae b6bc 5ea3 3dbc c49f c43d 096e 9c3c
00000010: 36bb 793d b20c dfbd e357 3c3d a8cb 8ebc
00000020: cdf5 7d3b 26d5 54bc 9163 03be 8a0e 383d
00000030: d1df b03d 8645 1a3d f386 37bd 6eae 04be
00000040: 3683 b3bd f5a7 973d d86c 43bd b6a4 8d3d
00000050: 59e9 07be c930 cebc 8c84 493d 1a83 15bd
00000060: 6aa2 babc a330 433e d933 b63c 7a8b 2cbe
00000070: 9b8e 82be 8ee1 e0bd 23cc 323e 5803 6d3d
00000080: 5933 aabd e018 8cbe 9b96 1bbe 1c5e 9a3e
00000090: 088e 6c3c 506b f5bd 1e37 1fbe ea1b 35be
000000a0: 97a0 4d3e 5b59 953d d3f4 823c 633d 61be
000000b0: beb4 3dbe bcdf 763e b5f5 583e 5718 0e3e
000000c0: 4cdf 8bbd d56b 2fbe f184 85be 0de7 813d
000000d0: a63b 733e 0e81 8c3e 9299 923c 9566 18be
000000e0: b4d4 e3bb 297c 243e 589b 353e a291 edbd
000000f0: 9ce3 47be 3a18 d5bb c98f 063e 9adf 573e
00000100: d530 70bc 19cb 7dbd beb8 f8bd c334 c8bc
00000110: 9f99 833d d10e 9ebc 55d6 09be c006 c9bd
00000120: c065 46bd d62b 7f3c 2eb0 efbd b592 423d
00000130: 0693 fb3c 35fe 2abe c124 8dbe 2c82 6bbe
00000140: 9910 0d3d 299e 5cbb ce46 a1bd 96fc 8dbe
00000150: f9cb 26be 4582 b43d 5ceb c6bb db03 07be
00000160: 3292 73be 05f7 42be d8c6 403d 7349 d83d
00000170: 18c9 bfbd 8882 e0bd ee84 a5bd 5ab6 103e
00000180: 7372 633e 61f6 7c3e 3d47 a03d 1858 403c
00000190: 6c81 e53d 5bc0 963d aa7e ca3c ee18 97bd
000001a0: 3da8 02bd a3cc b53d baa6 1f3d 1eee 5bbd
000001b0: db4a 2dbe 0ae6 30be 168e 823c 7bcb 633d
000001c0: 9c0e b0bd cd31 24be 1743 31be ed73 cdbd
000001d0: b5a2 70bd be2a efbd 7e4b 0dbe e73b 34be
000001e0: 95a3 edbd 5126 dbbd 8835 25be ad99 f2bd
000001f0: 411c 59be 93fc bf3c 7650 b7bd 82ee 06be
00000200: c811 88bd 4fec 91bd af94 393e c947 51bd
00000210: 467a 06be 3a93 a2bd cd66 10be cc9c 3b3e
00000220: 94b0 6fbb ee36 efbc 1f9d 71bd a8b8 c6bd
00000230: e2b9 343e e601 cd3c ff52 213d 2c84 68ba
00000240: 0448 17be 6870 433e 2cf9 983d 44be d33b
00000250: edef 8e3d 4137 31bd 18e3 5a3e 2a3b 043e
00000260: d2b1 323e 9866 bebc cb0d fabd 796b 013e
00000270: 09c5 083e ee2f 92bc 0ef5 4cbd e71b fabc
00000280: 186a 673d 425f 9abd 596e f5bd bd20 a2bd
00000290: 1719 87bc c1c5 94bd 68e4 a6bd 1aa6 afbd
000002a0: 363b c73c 3a0b e9bd 12fd cabb c8d1 b1bd
000002b0: 9c84 c1bc eac3 23be 116f bcbd 84ba 60bd
000002c0: e7fa b9bd 1aee 63be 3ea6 eb3d c8f7 cd3d
000002d0: b7d4 87be 77b1 afbd 960a 263e 7f19 813d
000002e0: 8d88 3dbe cf33 83bc 8e75 d9bc 6f74 d43d
000002f0: 0716 09bd 47e2 02be 543b 6f3d 7f55 4d3d
00000300: f774 14be 42d5 2abc c3e5 95bd 5d38 973d
00000310: e33a f03d 5384 463d 064d 7d3c 536c 85bd
00000320: ef0a 2e3e 5f71 443d c13f c0bd 72e0 8ebe
00000330: 1c01 37be 089d 793e d27d 1d3d 5495 74be
00000340: 7028 ddbd 8bf2 963d b2bd d7bd 02bc 2fbe
00000350: fd23 583d 48a2 813e 0ec4 9c3d afb3 efbd
00000360: 0284 2a3d 88ad 003d 5018 1c3c f885 17bd
00000370: 9f3f 333e c49f 003e c72d a9bd 82d6 d6bb
00000380: 13f6 093e a070 423e 7b9f 8a3e c623 60be
00000390: 0586 60bd f344 323e 67cf f43d 3dc5 86be
000003a0: 92b7 fcbd cb97 c33e 4468 173e b27b 90be
000003b0: 2bb3 1cbd 0002 cc3e 8f4f 57bc f8c0 bbbe
000003c0: 4d56 523c 505d 873e 9be7 adbd c359 9bbe
000003d0: 4c15 643c 7f7f a73d 2bbe 23be ebcb 89be
000003e0: 6721 40bc dd00 a43d 28c1 9dbc d623 1abe
000003f0: fe7d c43d 9f0c 903d 5720 bcbc 77c6 44be

conv2.bias f4 [16]
0.26983663 0.19034448 -0.8157205 0.3222044 -0.29184583 -0.19311686 0.13837035 -0.1749604
-0.14387688 -0.2725341 0.13578212 0.43232048 -0.072530724 0.60644346 0.57573277 0.93327886
00000000: 0728 8a3e aae9 423e 0fd3 50bf faf7 a43e
00000010: d16c 95be 6dc0 45be f5b0 0d3e d228 33be
00000020: 7654 13be 9789 8bbe 780a 0b3e 1c59 dd3e
00000030: fd8a 94bd e13f 1b3f 3963 133f 5deb 6e3f

fc1.weight f4 [120, 400]
-0.027414627 -0.111253284 -0.012852164 -0.069614254 -0.035573076 0.051918257 -0.015845925 -0.04235643
-0.025199497 -0.022549959 0.045458082 0.046587378 -0.050077315 -0.011220521 -0.006350118 -0.045625396
-0.05308085 -0.045668315 -0.055916157 -0.003223958 -0.05123137 -0.027885444 -0.0009241522 0.03962229
0.07813584 -0.07228815 -0.06650372 -0.07570247 0.011917598 0.051191308 -0.08919993 -0.034344587
0.017895022 0.041263163 3.2685537e-05 0.029160772 -0.08733126 0.007132644 -0.030289738 0.038585097
-0.04052362 0.07859869 0.019852197 0.0410978 0.039580304 -0.02231019 0.013617502 0.018223364
0.08194246 0.020868931 -0.02809067 -0.06986097 -0.080304295 -0.042620566 0.07758722 -0.036821276
0.017198397 -0.082638174 -0.0021362132 0.03032033 -0.010102623 0.04322517 0.029142605 0.071492486
0.0022782835 -0.03889556 0.06938719 0.05786246 0.06924346 -0.030104553 -0.06513707 -0.0026396553
-0.035279278 -0.109631814 -0.13797942 -0.10203158 -0.008632093 -0.01310622 -0.017382778 -0.07399558
-0.039046627 -0.013871584 -0.006948484 -0.054939892 0.007892826 0.048120257 0.0019424744 -0.053323567
-0.021331456 -0.013420867 -0.0027974301 0.048744503 -0.0110286735 0.010396441 -0.02351523 0.05529616
-0.043681365 -0.047958415 0.043612495 -0.03566668 0.055916786 -0.032164406 -0.04189324 -0.07353447
-0.0021556325 0.080001086 0.05362001 -0.054860063 -0.052641608 0.041218802 0.09635811 0.04042653
-0.07862297 -0.054581814 0.071987875 0.061184503 0.027733818 -0.04014041 -0.009328347 0.064546965
0.055221975 -0.03592801 -0.04671956 -0.014521426 -0.001282569 -0.04587839 0.03901577 0.037253793
-0.0017432482 -0.0122879725 -0.049097206 0.0441824 0.037922367 -0.043751303 0.012427571 -0.052667867
0.0033058405 0.016402056 0.011321041 0.05080846 -0.038097117 -0.032973833 0.0005992285 -0.05363838
-0.07786987 -0.08975519 -0.04650937 0.102328636 -0.021012252 -0.025374921 0.085588135 0.044350676
-0.045815174 -0.0035558636 0.028520042 0.09935559 0.08899379 -0.03469504 0.009417987 0.0053039785
0.08689919 0.047419183 -0.010378317 0.014509224 0.055038128 0.017649336 0.070367225 -0.06226701
-0.028165042 -0.006351313 -0.023355426 0.00872494 -0.027012762 0.048309825 0.0698356 -0.14743024
-0.08018905 -0.10664525 -0.058801305 -0.026778283 -0.031229254 -0.047860354 -0.048651893 0.0056859422
0.036893915 -0.020897115 0.0035684062 -0.099582344 0.051573887 -0.03798029 0.07218121 -0.048613057
-0.027667923 0.02132324 0.024245419 0.029866125 0.012974717 -0.039458804 0.031263556 0.018462632
0.017851418 0.06598615 0.0312009 0.045267392 0.1137778 0.03198934 0.03112599 0.04198521
0.06092217 0.10279633 0.01990123 0.08073169 0.07438362 0.0657132 -0.014942131 -0.06265022
0.060569383 0.015773287 -0.020414606 -0.042949397 -0.044180535 -0.09660735 -0.06770732 -0.02675164
-0.046373587 -0.03367818 -0.06108991 -0.020601347 0.02005636 0.007648137 -0.023001837 -0.021158852
-0.006169702 -0.03835303 0.016886493 -0.015235009 0.0031079184 -0.04018105 0.01719866 0.11658102
-0.018007264 -0.0011826426 -0.020232178 0.0031503828 0.056217615 0.0038124688 -0.01706888 0.064230554
0.06157697 0.027420145 -0.06300599 -0.045801282 -0.012861237 -0.057667635 0.00023658747 -0.06216244
00000000: a494 e0bc c3d8 e3bd e291 52bc eb91 8ebd
00000010: 13b5 11bd 3da8 543d 50cf 81bc f07d 2dbd
00000020: 2d6f cebc b1ba b8bc 4132 3a3d 68d2 3e3d
00000030: df1d 4dbd 47d6 37bc a714 d0bb b2e1 3abd
00000040: 4e6b 59bd b30e 3bbd 5708 65bd 0a49 53bb
00000050: fcd7 51bd 0470 e4bc ce42 72ba fb4a 223d
00000060: af05 a03d cf0b 94bd 1a33 88bd e609 9bbd
00000070: 0742 433c faad 513d 74ae b6bd e9ac 0cbd
00000080: 9598 923c 9003 293d d417 0938 92e2 ee3c
00000090: bbda b2bd f4b8 e93b 2f22 f8bc 680b 1e3d
000000a0: 18fc 25bd 5af8 a03d 13a1 a23c 2b56 283d
000000b0: f51e 223d dcc3 b6bc f11b 5f3c 2a49 953c
000000c0: 73d1 a73d 52f5 aa3c 681e e6bc 4513 8fbd
000000d0: 9476 a4bd e792 2ebd 0ce6 9e3d e8d1 16bd
000000e0: a7e3 8c3c 343e a9bd b6ff 0bbb 5762 f83c
000000f0: 7985 25bc e00c 313d 79bc ee3c a76a 923d
00000100: 414f 153b f350 1fbd df1a 8e3d 3001 6d3d
00000110: 84cf 8d3d d39d f6bc 9666 85bd 11fe 2cbb
00000120: 0181 10bd a586 e0bd 7a4a 0dbe eff5 d0bd
00000130: 9f6d 0dbc 79bb 56bc 5466 8ebc ff8a 97bd
00000140: 5bef 1fbd a445 63bc 1cb0 e3bb a708 61bd
00000150: e950 013c bf19 453d a09a fe3a d069 5abd
00000160: 4ebf aebc 32e3 5bbc 1755 37bb 51a8 473d
00000170: 9cb1 34bc d655 2a3c 03a3 c0bc 3a7e 623d
00000180: 3beb 32bd 0b70 44bd 04a3 323d 3a17 12bd
00000190: 0009 653d d3be 03bd 3f98 2bbd 3d99 96bd
000001a0: 8345 0dbb 9cd7 a33d a8a0 5b3d f2b4 60bd
000001b0: ba9e 57bd 0cd5 283d 6757 c53d 4a96 253d
000001c0: 1405 a1bd 2e91 5fbd 616e 933d 9a9c 7a3d
000001d0: 0832 e33c 456a 24bd ecd5 18bc 3331 843d
000001e0: 7030 623d 4029 13bd 025d 3fbd 46eb 6dbc
000001f0: e01b a8ba fbea 3bbd 00cf 1f3d 6f97 183d
00000200: b47d e4ba 7e53 49bc 271a 49bd 9bf8 343d
00000210: 7c54 1b3d 9134 33bd 039d 4b3c 43ba 57bd
00000220: cda6 583b 9b5d 863c e37b 393c 881c 503d
00000230: b90b 1cbd 920f 07bd 8b15 1d3a ebb3 5bbd
00000240: 3d7a 9fbd 92d1 b7bd 9c80 3ebd ad91 d13d
00000250: e321 acbc 11df cfbc d548 af3d 0ea9 353d
00000260: b1a8 3bbd 7e09 69bb dda2 e93c f27a cb3d
00000270: 6042 b63d 631c 0ebd e74d 1a3c ffcc ad3b
00000280: 34f8 b13d 9e3a 423d d109 2abc 19b8 6d3c
00000290: a96f 613d 5795 903c b11c 903d b10b 7fbd
000002a0: 60ba e6bc ad1e d0bb e153 bfbc 0df3 0e3c
000002b0: de49 ddbc 86e0 453d f805 8f3d f4f7 16be
000002c0: 283a a4bd d368 dabd a3d9 70bd 215e dbbc
000002d0: 7ed4 ffbc 3809 44bd 3547 47bd 2451 ba3b
000002e0: 131e 173d 6d30 abbc ecdb 693b d4f1 cbbd
000002f0: 243f 533d 3891 1bbd bed3 933d 7c1e 47bd
00000300: d7a7 e2bc 13ae ae3c 549e c63c cea9 f43c
00000310: e893 543c 8e9f 21bd 370e 003d f23e 973c
00000320: 233d 923c bf23 873d 0899 ff3c 4d6a 393d
00000330: 5604 e93d 4107 033d effb fe3c aff8 2b3d
00000340: 8689 793d e286 d23d e807 a33c a856 a53d
00000350: 7056 983d a494 863d d7cf 74bc c24e 80bd
00000360: 9a17 783d fb36 813c 883c a7bc b5eb 2fbd
00000370: a6f6 34bd 13da c5bd 23aa 8abd 4126 dbbc
00000380: 3bf2 3dbd 22f2 09bd 6a39 7abd 28c4 a8bc
00000390: 3c4d a43c 399d fa3b 596e bcbc 5455 adbc
000003a0: 362b cabb 1118 1dbd 8b55 8a3c 429c 79bc
000003b0: 38ae 4b3b e294 24bd 34e4 8c3c 08c2 ee3d
000003c0: f883 93bc e702 9bba f4bd a5bc a776 4e3b
000003d0: 7144 663d 9dda 793b 09d4 8bbc 4f8b 833d
000003e0: 2238 7c3d 36a0 e03c 4909 81bd 209a 3bbd
000003f0: f0b7 52bc e634 6cbd 7714 7839 0b9e 7ebd

fc1.bias f4 [120]
0.06633824 0.060905028 -0.002571753 0.02505066 0.04517596 0.11983901 -0.02396681 -0.016495164
0.03509253 0.077162385 0.10787278 -0.007280548 0.0035844794 0.00395179 -0.033497557 -0.063924335
-0.02249768 -0.08471992 -0.050712377 0.029370453 0.17637034 -0.05958142 -0.012594557 -0.062384143
-0.04245827 -0.12332458 0.032817915 0.20780455 0.005870106 -0.031424224 -0.03393653 0.015545103
0.012567714 -0.17648101 0.10780224 -0.07501617 0.029236129 0.036402777 -0.041735765 0.048790827
0.025394358 0.18794878 0.13679165 -0.050482735 -0.025751699 -0.05517815 0.21135385 -0.047515046
0.16109785 0.0015206306 -0.0150136445 0.061194647 -0.0054114987 0.12741867 0.02795448 0.12676615
-0.011570598 -0.0050448454 -0.19261421 -0.0127821425 -0.032261755 -0.05004244 -0.027283559 -0.019581376
0.06736383 -0.0052655307 -0.013852498 -0.027473802 0.05673722 0.0976902 -0.1430037 -0.0060172128
-0.13236581 0.07529869 -0.016234195 0.07730644 0.018812506 0.06769346 0.08747771 -0.03783323
0.023019206 0.023603097 0.13332403 0.02938883 0.029636804 0.052800506 -0.044869978 0.10860291
-0.09574275 -0.066472866 0.0045803287 0.069862515 0.11363969 -0.034093138 0.10303525 -0.013854929
0.06466196 -0.027271418 0.13993892 0.10292092 -0.022254711 -0.083843246 -0.07857413 0.019807678
0.007144623 0.016140178 -0.023284422 0.005705826 -0.068116665 0.012025956 0.14177817 -0.032126423
0.15076965 0.18280518 -0.010486594 -0.011121705 0.0186132 0.016231097 -0.086500995 0.11260098
00000000: 58dc 873d 8d77 793d db8a 28bb 0b37 cd3c
00000010: 6d0a 393d 286e f53d 0b56 c4bc de20 87bc
00000020: 2fbd 0f3d 5007 9e3d 67ec dc3d aa91 eebb
00000030: 96e9 6a3b 047e 813b bc34 09bd c3ea 82bd
00000040: 0e4d b8bc a381 adbd c8b7 4fbd 4e9a f03c
00000050: 6d9a 343e a60b 74bd 6759 4ebc 8486 7fbd
00000060: b9e8 2dbd 9991 fcbd 146c 063d b7ca 543e
00000070: 055a c03b b0b6 00bd 0801 0bbd e3b0 7e3c
00000080: d0e8 4d3c 70b7 34be 6cc7 dc3d 14a2 99bd
00000090: 9b80 ef3c 141b 153d 1ff3 2abd e4d8 473d
000000a0: d407 d03c a575 403e 1c13 0c3e fcc6 4ebd
000000b0: 3af5 d2bc 7c02 62bd 256d 583e 239f 42bd
000000c0: d6f6 243e e54f c73a cafb 75bc 3da7 7a3d
000000d0: f152 b1bb 0a7a 023e cb00 e53c fcce 013e
000000e0: 9b92 3dbc 3b4f a5bb a93c 45be 316c 51bc
000000f0: e724 04bd 4df9 4cbd c581 dfbc 1f69 a0bc
00000100: 0cf6 893d 798a acbb 96f5 62bc bd10 e1bc
00000110: 4a65 683d cd11 c83d 906f 12be 0a2c c5bb
00000120: e78a 07be 3336 9a3d 93fd 84bc d752 9e3d
00000130: af1c 9a3c dea2 8a3d 8327 b33d 04f7 1abd
00000140: c692 bc3c 485b c13c 1886 083e d8c0 f03c
00000150: e2c8 f23c 5845 583d 95c9 37bd 346b de3d
00000160: c614 c4bd ed22 88bd 9516 963b 1414 8f3d
00000170: edbb e83d 3fa5 0bbd 2504 d33d c9ff 62bc
00000180: 7d6d 843d 4f68 dfbc 264c 0f3e 34c8 d23d
00000190: 834f b6bc 02b6 abbd 79eb a0bd b643 a23c
000001a0: 711d ea3b 6838 843c f9be bebc f0f7 ba3b
000001b0: c080 8bbd 8408 453c 4c2e 113e ff96 03bd
000001c0: 5c63 1a3e 4831 3b3e f7cf 2bbc d037 36bc
000001d0: b67a 983c 14f7 843c 6f27 b1bd 589b e63d

fc2.weight f4 [84, 120]
0.073399514 -0.08847213 0.03910527 -0.046971902 0.01805666 -0.117262684 -0.08713849 -0.013491435
0.008074457 -0.055011805 -0.0672552 0.07307624 0.040597744 -0.04134406 -0.0062282914 -0.05453551
0.046570815 -0.093599446 0.08940384 -0.053157806 0.023883635 0.11729886 -0.0055755037 0.017399501
0.01640898 0.11575443 -0.038191315 -0.119273804 0.044422105 0.08782966 0.056865536 0.052300062
-0.06475652 0.028614886 -0.030450754 0.09829262 -0.094483785 -0.029317722 0.07647575 -0.081246704
-0.10470352 -0.002126034 0.03601395 0.117587 0.01850702 -0.09750188 -0.00022373532 -0.017693136
-0.0575179 -0.069185324 -0.021262275 -0.016391212 0.13529684 0.06586352 -0.019669602 -0.051866487
0.014842993 -0.099310145 0.047100954 0.055420462 0.08757828 -0.031101832 0.011645621 -0.08763941
-0.07660345 -0.053919647 -0.011046211 -0.0051258104 -0.07264661 -0.11357444 0.08176222 -0.013418101
0.00041879228 0.17729695 0.02679792 0.022740202 -0.030824848 0.059179563 -0.036119655 0.069517225
0.019861748 -0.132762 -0.025049064 -0.024483968 0.04601929 -0.063508555 0.120527335 0.041619632
0.03668454 0.03857892 0.11272926 -0.105963625 0.05555147 -0.04321113 0.057421867 -0.027301466
0.022346871 0.15991542 0.048844595 -0.11397332 0.018970381 0.11933255 0.1079361 0.02236993
-0.07079056 0.104671 -0.034290507 -0.08208515 0.030159257 0.016538786 0.07514826 0.15265611
-0.07306403 -0.06474564 0.060682893 0.08168516 0.010066218 -0.05710506 0.1477762 0.095675685
0.09723878 -0.036181375 -0.07070517 0.0069811107 0.12626466 0.029456817 0.013438629 0.00945607
0.10246879 0.0666565 -0.018335123 -0.051340874 -0.047959965 0.05417456 0.04130612 0.030406343
-0.100327566 0.039377116 0.017206904 -0.047362473 -0.019821484 0.0037559671 -0.03507682 0.01575996
-0.000544322 0.07357174 -0.061726663 -0.041792557 -0.022015272 0.06362496 -0.028782874 -0.005710199
-0.077756174 0.010411534 -0.10348119 0.0051872097 -0.013084993 0.045000974 -0.050230388 0.004032402
0.0072738943 0.07493736 -0.07786038 -0.05744507 0.13028972 -0.049174454 -0.0842553 0.022443034
-0.09699797 -0.057875738 0.11398761 -0.037326526 0.029507518 -0.028936531 -0.036098313 0.121763274
-0.08441027 0.039803296 -0.07891981 -0.02714452 0.036288034 -0.009520718 -0.0032941923 -0.07748631
-0.095687605 0.056875672 0.0431564 0.011315772 0.044594355 0.014384621 -0.059614535 -0.050758537
-0.0030283642 0.014242918 0.07860096 0.08353079 -0.0803489 -0.021406233 0.14162266 -0.04283742
0.072276615 0.023266556 -0.08506435 0.024183525 -0.0972027 0.07770152 0.05810816 -0.009613125
-0.048984315 -0.07302045 -0.033605162 0.07750853 0.10723035 -0.020193392 -0.02928623 -0.038292244
0.13298024 0.040307235 0.06936325 0.05762726 -0.018169735 0.006629253 -0.04903223 -0.019757407
-0.035428014 0.033652183 -0.01887376 -0.085728005 -0.048362643 0.003697345 0.046973996 0.028044032
0.002321754 -0.073458776 0.017543942 -0.073278174 0.11024937 0.00587996 0.09990439 0.04033129
0.13668695 -0.10779899 0.014769551 0.0851808 0.04501144 0.044131383 0.014178055 -0.06577497
-0.053053085 -0.09261349 0.096973136 0.060647253 0.011613974 0.089136824 0.05307912 -0.029501189
00000000: 7c52 963d e030 b5bd d92c 203d 9c65 40bd
00000010: 90eb 933c 6b27 f0bd aa75 b2bd 2e0b 5dbc
00000020: ba4a 043c 0f54 61bd 18bd 89bd ffa8 953d
00000030: d249 263d 6458 29bd b216 ccbb a060 5fbd
00000040: 0ac1 3e3d 11b1 bfbd 5c19 b73d 00bc 59bd
00000050: 9da7 c33c 623a f03d b7b2 b6bb 6689 8e3c
00000060: 206c 863c a910 ed3d 7f6e 1cbd d345 f4bd
00000070: f4f3 353d 09e0 b33d d6eb 683d 9738 563d
00000080: 119f 84bd c469 ea3c dc73 f9bc a44d c93d
00000090: b780 c1bd b82b f0bc 519f 9c3d ac64 a6bd
000000a0: cd6e d6bd ef54 0bbb 5d83 133d 74d1 f03d
000000b0: 099c 973c 11af c7bd 7e9a 6ab9 32f1 90bc
000000c0: e497 6bbd 09b1 8dbd 392e aebc dd46 86bc
000000d0: 418b 0a3e 74e3 863d 2522 a1bc f471 54bd
000000e0: 0630 733c 1e63 cbbd eeec 403d 9100 633d
000000f0: 3e5c b33d 45c9 febc 46cd 3e3c 4a7c b3bd
00000100: 45e2 9cbd d9da 5cbd 2bfb 34bc 6af6 a7bb
00000110: bfc7 94bd b799 e8bd f372 a73d 98d7 5bbc
00000120: 5991 db39 558d 353e 5087 db3c a949 ba3c
00000130: 6484 fcbc 4566 723d 34f2 13bd 0c5f 8e3d
00000140: 1bb5 a23c c3f2 07be b233 cdbc 9a92 c8bc
00000150: b97e 3c3d c610 82bd 09d7 f63d 5979 2a3d
00000160: 8742 163d ee04 1e3d 99de e63d 7503 d9bd
00000170: f089 633d 27fe 30bd 3133 6b3d 53a7 dfbc
00000180: c910 b73c dec0 233e 4511 483d d86a e9bd
00000190: c667 9b3c a064 f43d 9a0d dd3d 2541 b73c
000001a0: a4fa 90bd c05d d63d 3474 0cbd 421c a8bd
000001b0: 8c10 f73c 597c 873c 55e7 993d e251 1c3e
000001c0: 98a2 95bd 5d99 84bd a08e 783d 8d4a a73d
000001d0: c7ec 243c ffe6 69bd a552 173e 9df1 c33d
000001e0: 2025 c73d ec32 14bd dfcd 90bd cdc1 e43b
000001f0: 864b 013e 6c4f f13c b22d 5c3c a2ed 1a3c
00000200: 28db d13d 3483 883d 8a33 96bc cf4a 52bd
00000210: ab71 44bd 25e6 5d3d 9b30 293d b916 f93c
00000220: 8a78 cdbd e649 213d 7ef5 8c3c 27ff 41bd
00000230: aa60 a2bc ac26 763b b6ac 0fbd 081b 813c
00000240: d5b0 0eba c8ac 963d 19d5 7cbd ac2e 2bbd
00000250: 5f59 b4bc ce4d 823d 10ca ebbc 9f1c bbbb
00000260: a13e 9fbd 2495 2a3c f2ed d3bd 78f9 a93b
00000270: 7062 56bc f152 383d 61be 4dbd 3d22 843b
00000280: d959 ee3b c278 993d 4375 9fbd 864b 6bbd
00000290: ab6a 053e 276b 49bd 0b8e acbd 74da b73c
000002a0: dfa6 c6bd 1c0f 6dbd 5672 e93d b3e3 18bd
000002b0: c0b9 f13c 4e0c edbc d3db 13bd 065f f93d
000002c0: 4bdf acbd c808 233d b6a0 a1bd 2f5e debc
000002d0: c3a2 143d c9fc 1bbc 60e3 57bb 24b1 9ebd
000002e0: ddf7 c3bd 77f6 683d c4c4 303d ca65 393c
000002f0: 92a8 363d 79ad 6b3c 5f2e 74bd 2fe8 4fbd
00000300: 8577 46bb 215b 693c 8af9 a03d 3112 ab3d
00000310: f78d a4bd 205c afbc 8805 113e 4a76 2fbd
00000320: c305 943d 8199 be3c 3836 aebd 871c c63c
00000330: 3612 c7bd f921 9f3d d202 6e3d 5e80 1dbc
00000340: c7a3 48bd bf8b 95bd 91a5 09bd cbbc 9e3d
00000350: 969b db3d 9d6c a5bc ade9 efbc 54d8 1cbd
00000360: f92b 083e 3319 253d 520e 8e3d 900a 6c3d
00000370: b2d8 94bc 343a d93b 05d6 48bd 49da a1bc
00000380: f71c 11bd dfd6 093d 259d 9abc 2a92 afbd
00000390: e817 46bd 284f 723b ce67 403d 99bc e53c
000003a0: 9128 183b 8e71 96bd 50b8 8f3c de12 96bd
000003b0: 6cca e13d aeac c03b ac9a cc3d 6c32 253d
000003c0: aaf7 0b3e b8c5 dcbd fdfb 713c 4573 ae3d
000003d0: ea5d 383d 1cc3 343d 134b 683c 07b5 86bd
000003e0: 314e 59bd 24ac bdbd da99 c63d 4169 783d
000003f0: 8a48 3e3c 5e8d b63d 7e69 593d 7aac f1bc

fc2.bias f4 [84]
-0.27701408 0.037104417 0.017386759 0.069293566 0.25580555 -0.039281458 -0.041095097 0.25437164
0.1736926 -0.06645017 0.24401629 0.098071545 0.022505565 0.33017445 -0.15051748 0.26210445
0.27525178 0.20005919 -0.023945464 0.09255763 0.094367996 0.16548866 0.0308301 -0.17975973
-0.011411528 0.110288024 0.07965856 -0.046496514 0.30558485 -0.10373763 -0.034259073 0.05938918
-0.20910376 -0.030398056 -0.08135424 0.2788926 0.18175305 0.39195812 0.026811069 0.119294
-0.09177021 -0.032826636 -0.027767118 -0.04545594 0.106558055 0.120852545 0.014888989 0.10687719
0.14930633 0.031445198 -0.010970296 0.021445727 -0.008906207 -0.19743831 0.21127075 -0.011755312
0.067567274 -0.0024148726 -0.05408872 -0.050617244 -0.051827524 0.15085067 0.077434845 0.11086111
-0.046715476 -0.020249639 0.09096632 -0.040428016 0.10624618 0.11330302 -0.08751573 0.03880739
-0.07562149 0.10682039 0.05873746 0.32451144 -0.05882774 -0.14637499 0.07274504 -0.0803276
-0.031690024 0.06598401 0.36767524 -0.02925417
00000000: cad4 8dbe cdfa 173d ad6e 8e3c c9e9 8d3d
00000010: f2f8 823e 98e5 20bd 5553 28bd 003d 823e
00000020: 79dc 313e 0717 88bd 68df 793e bcd9 c83d
00000030: 975d b83c a00c a93e 4121 1abe 8e32 863e
00000040: cded 8c3e 51dc 4c3e 4729 c4bc db8e bd3d
00000050: 0244 c13d dc75 293e 688f fc3c ef12 38be
00000060: 6bf7 3abc b0de e13d 0724 a33d 2173 3ebd
00000070: 9e75 9c3e 6574 d4bd 3e53 0cbd 1242 733d
00000080: 4c1f 56be 5805 f9bc 0d9d a6bd 03cb 8e3e
00000090: 791d 3a3e bcae c83e e3a2 db3c 6a50 f43d
000000a0: 05f2 bbbd 3975 06bd de77 e3bc 0230 3abd
000000b0: 1c3b da3d 8a81 f73d f2f0 733c 6ee2 da3d
000000c0: c2e3 183e aecc 003d c2bc 33bc f3ae af3c
000000d0: 57eb 11bc 452d 4abe 5c57 583e 5a99 40bc
000000e0: b660 8a3d d742 1ebb 228c 5dbd 0754 4fbd
000000f0: 1949 54bd 9978 1a3e 2996 9e3d 260b e33d
00000100: ba58 3fbd 92e2 a5bc 8d4c ba3d d997 25bd
00000110: 9997 d93d 6a0b e83d 723b b3bd 7ff4 1e3d
00000120: 71df 9abd a6c4 da3d b196 703d 5d26 a63e
00000130: 5bf5 70bd 53e3 15be 5afb 943d cc82 a4bd
00000140: 66cd 01bd a022 873d ee3f bc3e 71a6 efbc

fc3.weight f4 [10, 84]
0.068139024 0.18127249 0.10072073 -0.13368616 0.059309013 -0.048905514 0.03726792 -0.025180541
-0.083405234 0.07427879 -0.23746178 0.15010424 -0.009406977 -0.16702804 0.27975798 -0.13648166
-0.15749156 0.18506736 0.107456714 -0.026117075 -0.0033900384 0.1880402 0.22809137 0.027410312
0.06509674 -0.028103331 -0.20030113 0.027647479 -0.19897918 0.027507413 0.13263991 -0.024502823
0.01297905 0.05216033 -0.07974779 0.07343169 -0.032074407 0.3417125 -0.07572405 0.09558423
-0.08110733 0.06564257 0.13139218 0.08473349 -0.10765544 -0.10933097 -0.07608723 0.12310253
-0.027214788 -0.09013059 0.17398633 0.12490819 0.07576564 0.20836511 0.21215484 -0.10207255
-0.19390687 0.06372825 -0.10028034 -0.0053326557 -0.020622602 -0.100834146 0.064352356 -0.18406293
0.048281696 0.21411465 -0.17005609 -0.06613649 -0.012154467 -0.09416713 0.05007904 -0.065812655
0.117204316 -0.1296013 0.21669501 -0.25652125 -0.08768994 0.12883933 -0.05705647 -0.102471456
-0.11096865 -0.0552692 0.15525238 0.021523563 0.24965248 0.12991619 0.20869786 -0.10774076
-0.016125027 0.037966017 -0.06169035 -0.33992332 -0.13611013 -0.10098302 -0.18565351 0.15029816
-0.06588041 -0.280906 -0.08285372 -0.0026111624 0.030896535 0.3873116 0.08068404 -0.10862345
-0.053659134 0.11070741 -0.03966179 0.2313704 -0.11835847 -0.20983578 0.112527914 0.011865641
-0.24505809 0.112931274 -0.10141138 0.17153567 0.12066404 -0.07779843 0.035783693 0.120795734
0.063855834 -0.24696879 -0.07904989 -0.008963709 0.17028111 -0.053677052 0.12863427 0.015930926
-0.035858996 -0.10017894 -0.065993324 -0.09096475 -0.12023823 0.14610188 -0.10458384 -0.081498735
0.10660543 0.019952385 0.029552279 0.014952227 0.19137049 -0.098448254 -0.07722592 0.0045097955
-0.09686404 0.06405567 0.08613568 -0.2644041 -0.0064905263 0.07506061 -0.0744232 0.05374741
-0.06509829 -0.17048794 0.04864282 0.3382861 0.033719864 -0.03953874 -0.06871554 0.04439234
-0.095776565 0.13001063 -0.013136603 0.22170894 0.07724902 -0.085345745 -0.2650171 -0.039091595
-0.16095988 -0.13154308 0.04874997 0.08289356 -0.0017201232 0.15512043 0.0032446417 0.090649195
0.26429248 0.02200662 -0.04960988 0.014106931 -0.08074949 0.1565984 0.038395137 0.3190013
0.15145774 -0.14249413 0.039376643 0.1786298 0.06583762 -0.10199839 -0.021879109 0.04881306
0.0039791767 -0.051082984 -0.15039395 0.0653739 0.12833196 -0.0082001 0.18546206 -0.05730778
-0.19342881 -0.07665221 0.09174295 -0.16558588 0.06925081 0.28568786 0.09967978 0.21876544
-0.12972586 -0.13288744 0.19458875 -0.2004586 -0.17239049 0.14346923 0.0928943 -0.035384607
0.03128646 -0.060884107 0.19054972 -0.12069998 -0.17877875 0.14568938 0.007944495 -0.115342215
0.07634628 0.06818546 0.02280402 -0.08729446 -0.010612495 -0.07221011 0.0011629972 -0.0062749973
-0.008305446 -0.034253754 -0.014233148 -0.050968282 -0.10488385 0.22284044 -0.06879509 -0.09777642
0.059728596 0.10869625 0.11466933 0.30799696 0.0938428 -0.13838501 0.00786407 -0.00069817563
0.034344107 -0.06510273 0.25368762 0.07691231 0.0007898238 -0.09862327 -0.21482448 0.024243774
00000000: 798c 8b3d 7f9f 393e ac46 ce3d 06e5 08be
00000010: 02ee 723d 2651 48bd 3fa6 183d 6c47 cebc
00000020: 5dd0 aabd 7a1f 983d 2e29 73be edb4 193e
00000030: b91f 1abc 6609 2bbe 703c 8f3e d9c1 0bbe
00000040: 7845 21be 4c82 3d3e 4412 dc3d 7af3 d5bc
00000050: 682b 5ebb 9c8d 403e c990 693e 978b e03c
00000060: 7151 853d f538 e6bc bd1b 4dbe f77c e23c
00000070: 33c1 4bbe 3a57 e13c c2d2 073e 25ba c8bc
00000080: 15a6 543c 12a6 553d cf52 a3bd 5b63 963d
00000090: 7460 03bd f1f4 ae3e 3615 9bbd aac1 c33d
000000a0: 9a1b a6bd 9d6f 863d ac8b 063e c188 ad3d
000000b0: 757a dcbd eae8 dfbd 9fd3 9bbd 2e1d fc3d
000000c0: 8cf1 debc 6396 b8bd 7929 323e ddcf ff3d
000000d0: 042b 9b3d aa5d 553e 1e3f 593e 6a0b d1bd
000000e0: 868f 46be f583 823d c75f cdbd 8fbd aebb
000000f0: bbf0 a8bc 2282 cebd 2bcb 833d fe7a 3cbe
00000100: 07c3 453d df40 5b3e 2f23 2ebe 9172 87bd
00000110: 8823 47bc b2da c0bd ae1f 4d3d c9c8 86bd
00000120: d108 f03d 34b6 04be 4ce5 5d3e c156 83be
00000130: c996 b3bd 75ee 033e 0cb4 69bd 8edc d1bd
00000140: 8843 e3bd f561 62bd 7bfa 1e3e 2f52 b03c
00000150: e6a4 7f3e c008 053e e4b4 553e 30a7 dcbd
00000160: a218 84bc 4182 1b3d 05af 7cbd 6e0a aebe
00000170: 7460 0bbe 30d0 cebd f41b 3ebe c3e7 193e
00000180: 4fec 86bd e9d2 8fbe 36af a9bd 0920 2bbb
00000190: bb1a fd3c b54d c63e ad3d a53d f975 debd
000001a0: aec9 5bbd 91ba e23d 6774 22bd 5dec 6c3e
000001b0: ed65 f2bd 31df 56be 0975 e63d 1b68 423c
000001c0: 82f0 7abe 8348 e73d c5b0 cfbd 0ca7 2f3e
000001d0: b51e f73d c954 9fbd ec91 123d c163 f73d
000001e0: d9c6 823d 63e5 7cbe e9e4 a1bd 85dc 12bc
000001f0: 2c5e 2e3e 78dc 5bbd b4b8 033e 9381 823c
00000200: e2e0 12bd 9e2a cdbd 8227 87bd ba4b babd
00000210: 763f f6bd bb9b 153e 0d30 d6bd cfe8 a6bd
00000220: f353 da3d 2f73 a33c 9f17 f23c 2ffa 743c
00000230: a0f6 433e 3d9f c9bd a028 9ebd e8c6 933b
00000240: a760 c6bd 9e2f 833d e767 b03d f95f 87be
00000250: 7bae d4bb 61b9 993d 316b 98bd 3f26 5c3d
00000260: 4152 85bd 6494 2ebe b23d 473d d633 ad3e
00000270: d71d 0a3d 60f3 21bd bcba 8cbd bed4 353d
00000280: 8126 c4bd 8221 053e e83a 57bc ab07 633e
00000290: bc34 9e3d c0c9 aebd 52b0 87be 821e 20bd
000002a0: abd2 24be 3bb3 06be 0cae 473d 19c4 a93d
000002b0: c275 e1ba e4d7 1e3e 0ea4 543b 49a6 b93d
000002c0: 5851 873e 3a47 b43c bb33 4bbd c220 673c
000002d0: fd5f a5bd 555b 203e 3844 1d3d 2354 a33e
000002e0: bd17 1b3e fbe9 11be 6749 213d bbea 363e
000002f0: e0d5 863d 88e4 d0bd d13b b3bc 34f0 473d
00000300: c163 823b 643c 51bd df00 1abe c0e2 853d
00000310: 7469 033e b659 06bc c4e9 3d3e 90bb 6abd
00000320: 3412 46be d5fb 9cbd bae3 bb3d 588f 29be
00000330: 5ed3 8d3d ae45 923e ea24 cc3d 0c04 603e
00000340: dbd6 04be a513 08be 4642 473e 0545 4dbe
00000350: 2287 30be 99e9 123e 5e3f be3d 73ef 10bd
00000360: 3b26 003d 9d61 79bd 771f 433e 8d31 f7bd
00000370: c711 37be 992f 153e a129 023c 8a38 ecbd
00000380: 705b 9c3d d2a4 8b3d 7fcf ba3c 70c7 b2bd
00000390: 08e0 2dbc e5e2 93bd b66f 983a 7e9e cdbb
000003a0: 9113 08bc aa4d 0cbd 2632 69bc 1ec4 50bd
000003b0: 58cd d6bd 4930 643e 71e4 8cbd 013f c8bd
000003c0: f9a5 743d 249c de3d c1d7 ea3d c7b1 9d3e
000003d0: a730 c03d cdb4 0dbe 4dd8 003c c605 37ba
000003e0: 68ac 0c3d 9554 85bd 58e3 813e 3484 9d3d
000003f0: 2e0c 4f3a fffa c9bd f3fa 5bbe e19a c63c

fc3.bias f4 [10]
-0.13117486 -0.6711524 0.25804025 0.27588886 0.40264183 -0.14980985 0.050402932 -0.2569933
0.45929292 -0.34709623
00000000: b452 06be a5d0 2bbf da1d 843e 4e41 8d3e
00000010: 1227 ce3e c167 19be 4e73 4e3d a094 83be
00000020: 7128 eb3e 99b6 b1be
